…
I1119 20:04:48.660495  3739 net.cpp:322] The NetState phase (0) differed from the phase (1) specified by a rule in layer accuracy
I1119 20:04:48.660634  3739 net.cpp:58] Initializing net from parameters: 
name: "Life_CaffeNet"
state {
  phase: TRAIN
  level: 0
  stage: ""
}
layer {
  name: "data"
  type: "ImageData"
  top: "data"
  top: "label"
  include {
    phase: TRAIN
  }
  transform_param {
    mirror: true
    crop_size: 227
    mean_file: "examples/life_classification/life_train_mean.binaryproto"
  }
  image_data_param {
    source: "examples/life_classification/data/train_label.txt"
    batch_size: 50
  }
}
layer {
  name: "conv1"
  type: "Convolution"
  bottom: "data"
  top: "conv1"
  param {
    lr_mult: 1
    decay_mult: 1
  }
  param {
    lr_mult: 2
    decay_mult: 0
  }
  convolution_param {
    num_output: 96
    kernel_size: 11
    stride: 4
    weight_filler {
      type: "gaussian"
      std: 0.01
    }
    bias_filler {
      type: "constant"
      value: 0
    }
  }
}
layer {
  name: "relu1"
  type: "ReLU"
  bottom: "conv1"
  top: "conv1"
}
layer {
  name: "pool1"
  type: "Pooling"
  bottom: "conv1"
  top: "pool1"
  pooling_param {
    pool: MAX
    kernel_size: 3
    stride: 2
  }
}
layer {
  name: "norm1"
  type: "LRN"
  bottom: "pool1"
  top: "norm1"
  lrn_param {
    local_size: 5
    alpha: 0.0001
    beta: 0.75
  }
}
layer {
  name: "conv2"
  type: "Convolution"
  bottom: "norm1"
  top: "conv2"
  param {
    lr_mult: 1
    decay_mult: 1
  }
  param {
    lr_mult: 2
    decay_mult: 0
  }
  convolution_param {
    num_output: 256
    pad: 2
    kernel_size: 5
    group: 2
    weight_filler {
      type: "gaussian"
      std: 0.01
    }
    bias_filler {
      type: "constant"
      value: 1
    }
  }
}
layer {
  name: "relu2"
  type: "ReLU"
  bottom: "conv2"
  top: "conv2"
}
layer {
  name: "pool2"
  type: "Pooling"
  bottom: "conv2"
  top: "pool2"
  pooling_param {
    pool: MAX
    kernel_size: 3
    stride: 2
  }
}
layer {
  name: "norm2"
  type: "LRN"
  bottom: "pool2"
  top: "norm2"
  lrn_param {
    local_size: 5
    alpha: 0.0001
    beta: 0.75
  }
}
layer {
  name: "conv3"
  type: "Convolution"
  bottom: "norm2"
  top: "conv3"
  param {
    lr_mult: 1
    decay_mult: 1
  }
  param {
    lr_mult: 2
    decay_mult: 0
  }
  convolution_param {
    num_output: 384
    pad: 1
    kernel_size: 3
    weight_filler {
      type: "gaussian"
      std: 0.01
    }
    bias_filler {
      type: "constant"
      value: 0
    }
  }
}
layer {
  name: "relu3"
  type: "ReLU"
  bottom: "conv3"
  top: "conv3"
}
layer {
  name: "conv4"
  type: "Convolution"
  bottom: "conv3"
  top: "conv4"
  param {
    lr_mult: 1
    decay_mult: 1
  }
  param {
    lr_mult: 2
    decay_mult: 0
  }
  convolution_param {
    num_output: 384
    pad: 1
    kernel_size: 3
    group: 2
    weight_filler {
      type: "gaussian"
      std: 0.01
    }
    bias_filler {
      type: "constant"
      value: 1
    }
  }
}
layer {
  name: "relu4"
  type: "ReLU"
  bottom: "conv4"
  top: "conv4"
}
layer {
  name: "conv5"
  type: "Convolution"
  bottom: "conv4"
  top: "conv5"
  param {
    lr_mult: 1
    decay_mult: 1
  }
  param {
    lr_mult: 2
    decay_mult: 0
  }
  convolution_param {
    num_output: 256
    pad: 1
    kernel_size: 3
    group: 2
    weight_filler {
      type: "gaussian"
      std: 0.01
    }
    bias_filler {
      type: "constant"
      value: 1
    }
  }
}
layer {
  name: "relu5"
  type: "ReLU"
  bottom: "conv5"
  top: "conv5"
}
layer {
  name: "pool5"
  type: "Pooling"
  bottom: "conv5"
  top: "pool5"
  pooling_param {
    pool: MAX
    kernel_size: 3
    stride: 2
  }
}
layer {
  name: "fc6"
  type: "InnerProduct"
  bottom: "pool5"
  top: "fc6"
  param {
    lr_mult: 1
    decay_mult: 1
  }
  param {
    lr_mult: 2
    decay_mult: 0
  }
  inner_product_param {
    num_output: 4096
    weight_filler {
      type: "gaussian"
      std: 0.005
    }
    bias_filler {
      type: "constant"
      value: 1
    }
  }
}
layer {
  name: "relu6"
  type: "ReLU"
  bottom: "fc6"
  top: "fc6"
}
layer {
  name: "drop6"
  type: "Dropout"
  bottom: "fc6"
  top: "fc6"
  dropout_param {
    dropout_ratio: 0.5
  }
}
layer {
  name: "fc7"
  type: "InnerProduct"
  bottom: "fc6"
  top: "fc7"
  param {
    lr_mult: 1
    decay_mult: 1
  }
  param {
    lr_mult: 2
    decay_mult: 0
  }
  inner_product_param {
    num_output: 4096
    weight_filler {
      type: "gaussian"
      std: 0.005
    }
    bias_filler {
      type: "constant"
      value: 1
    }
  }
}
layer {
  name: "relu7"
  type: "ReLU"
  bottom: "fc7"
  top: "fc7"
}
layer {
  name: "drop7"
  type: "Dropout"
  bottom: "fc7"
  top: "fc7"
  dropout_param {
    dropout_ratio: 0.5
  }
}
layer {
  name: "fc8_oxford_102"
  type: "InnerProduct"
  bottom: "fc7"
  top: "fc8_oxford_102"
  param {
    lr_mult: 0
    decay_mult: 1
  }
  param {
    lr_mult: 0
    decay_mult: 0
  }
  inner_product_param {
    num_output: 71
    weight_filler {
      type: "gaussian"
      std: 0.01
    }
    bias_filler {
      type: "constant"
      value: 0
    }
  }
}
layer {
  name: "loss"
  type: "SoftmaxWithLoss"
  bottom: "fc8_oxford_102"
  bottom: "label"
}
I1119 20:04:48.681507  3739 layer_factory.hpp:77] Creating layer data
I1119 20:04:48.686671  3739 net.cpp:100] Creating Layer data
I1119 20:04:48.686686  3739 net.cpp:408] data -> data
I1119 20:04:48.686703  3739 net.cpp:408] data -> label
I1119 20:04:48.686715  3739 data_transformer.cpp:25] Loading mean file from: examples/life_classification/life_train_mean.binaryproto
I1119 20:04:48.956277  3739 image_data_layer.cpp:38] Opening file examples/life_classification/data/train_label.txt
I1119 20:04:49.046741  3739 image_data_layer.cpp:58] A total of 7020 images.
I1119 20:04:49.067320  3739 image_data_layer.cpp:85] output data size: 50,3,227,227
I1119 20:04:49.118217  3739 net.cpp:150] Setting up data
I1119 20:04:49.118258  3739 net.cpp:157] Top shape: 50 3 227 227 (7729350)
I1119 20:04:49.118265  3739 net.cpp:157] Top shape: 50 (50)
I1119 20:04:49.118269  3739 net.cpp:165] Memory required for data: 30917600
I1119 20:04:49.118278  3739 layer_factory.hpp:77] Creating layer conv1
I1119 20:04:49.118297  3739 net.cpp:100] Creating Layer conv1
I1119 20:04:49.118304  3739 net.cpp:434] conv1 <- data
I1119 20:04:49.118316  3739 net.cpp:408] conv1 -> conv1
I1119 20:04:51.051329  3739 net.cpp:150] Setting up conv1
I1119 20:04:51.051367  3739 net.cpp:157] Top shape: 50 96 55 55 (14520000)
I1119 20:04:51.051373  3739 net.cpp:165] Memory required for data: 88997600
I1119 20:04:51.051391  3739 layer_factory.hpp:77] Creating layer relu1
I1119 20:04:51.051403  3739 net.cpp:100] Creating Layer relu1
I1119 20:04:51.051409  3739 net.cpp:434] relu1 <- conv1
I1119 20:04:51.051414  3739 net.cpp:395] relu1 -> conv1 (in-place)
I1119 20:04:51.051558  3739 net.cpp:150] Setting up relu1
I1119 20:04:51.051568  3739 net.cpp:157] Top shape: 50 96 55 55 (14520000)
I1119 20:04:51.051571  3739 net.cpp:165] Memory required for data: 147077600
I1119 20:04:51.051574  3739 layer_factory.hpp:77] Creating layer pool1
I1119 20:04:51.051587  3739 net.cpp:100] Creating Layer pool1
I1119 20:04:51.051600  3739 net.cpp:434] pool1 <- conv1
I1119 20:04:51.051605  3739 net.cpp:408] pool1 -> pool1
I1119 20:04:51.075253  3739 net.cpp:150] Setting up pool1
I1119 20:04:51.075269  3739 net.cpp:157] Top shape: 50 96 27 27 (3499200)
I1119 20:04:51.075274  3739 net.cpp:165] Memory required for data: 161074400
I1119 20:04:51.075278  3739 layer_factory.hpp:77] Creating layer norm1
I1119 20:04:51.082572  3739 net.cpp:100] Creating Layer norm1
I1119 20:04:51.082587  3739 net.cpp:434] norm1 <- pool1
I1119 20:04:51.082593  3739 net.cpp:408] norm1 -> norm1
I1119 20:04:51.082896  3739 net.cpp:150] Setting up norm1
I1119 20:04:51.082908  3739 net.cpp:157] Top shape: 50 96 27 27 (3499200)
I1119 20:04:51.082912  3739 net.cpp:165] Memory required for data: 175071200
I1119 20:04:51.082916  3739 layer_factory.hpp:77] Creating layer conv2
I1119 20:04:51.082928  3739 net.cpp:100] Creating Layer conv2
I1119 20:04:51.082932  3739 net.cpp:434] conv2 <- norm1
I1119 20:04:51.082938  3739 net.cpp:408] conv2 -> conv2
I1119 20:04:51.093061  3739 net.cpp:150] Setting up conv2
I1119 20:04:51.093077  3739 net.cpp:157] Top shape: 50 256 27 27 (9331200)
I1119 20:04:51.093081  3739 net.cpp:165] Memory required for data: 212396000
I1119 20:04:51.093091  3739 layer_factory.hpp:77] Creating layer relu2
I1119 20:04:51.093097  3739 net.cpp:100] Creating Layer relu2
I1119 20:04:51.093101  3739 net.cpp:434] relu2 <- conv2
I1119 20:04:51.093106  3739 net.cpp:395] relu2 -> conv2 (in-place)
I1119 20:04:51.093248  3739 net.cpp:150] Setting up relu2
I1119 20:04:51.093258  3739 net.cpp:157] Top shape: 50 256 27 27 (9331200)
I1119 20:04:51.093262  3739 net.cpp:165] Memory required for data: 249720800
I1119 20:04:51.093266  3739 layer_factory.hpp:77] Creating layer pool2
I1119 20:04:51.093272  3739 net.cpp:100] Creating Layer pool2
I1119 20:04:51.093276  3739 net.cpp:434] pool2 <- conv2
I1119 20:04:51.093281  3739 net.cpp:408] pool2 -> pool2
I1119 20:04:51.093314  3739 net.cpp:150] Setting up pool2
I1119 20:04:51.093320  3739 net.cpp:157] Top shape: 50 256 13 13 (2163200)
I1119 20:04:51.093323  3739 net.cpp:165] Memory required for data: 258373600
I1119 20:04:51.093327  3739 layer_factory.hpp:77] Creating layer norm2
I1119 20:04:51.093334  3739 net.cpp:100] Creating Layer norm2
I1119 20:04:51.093338  3739 net.cpp:434] norm2 <- pool2
I1119 20:04:51.093341  3739 net.cpp:408] norm2 -> norm2
I1119 20:04:51.093678  3739 net.cpp:150] Setting up norm2
I1119 20:04:51.093689  3739 net.cpp:157] Top shape: 50 256 13 13 (2163200)
I1119 20:04:51.093693  3739 net.cpp:165] Memory required for data: 267026400
I1119 20:04:51.093696  3739 layer_factory.hpp:77] Creating layer conv3
I1119 20:04:51.093705  3739 net.cpp:100] Creating Layer conv3
I1119 20:04:51.093709  3739 net.cpp:434] conv3 <- norm2
I1119 20:04:51.093715  3739 net.cpp:408] conv3 -> conv3
I1119 20:04:51.118683  3739 net.cpp:150] Setting up conv3
I1119 20:04:51.118711  3739 net.cpp:157] Top shape: 50 384 13 13 (3244800)
I1119 20:04:51.118716  3739 net.cpp:165] Memory required for data: 280005600
I1119 20:04:51.118727  3739 layer_factory.hpp:77] Creating layer relu3
I1119 20:04:51.118736  3739 net.cpp:100] Creating Layer relu3
I1119 20:04:51.118741  3739 net.cpp:434] relu3 <- conv3
I1119 20:04:51.118746  3739 net.cpp:395] relu3 -> conv3 (in-place)
I1119 20:04:51.118983  3739 net.cpp:150] Setting up relu3
I1119 20:04:51.118993  3739 net.cpp:157] Top shape: 50 384 13 13 (3244800)
I1119 20:04:51.118998  3739 net.cpp:165] Memory required for data: 292984800
I1119 20:04:51.119001  3739 layer_factory.hpp:77] Creating layer conv4
I1119 20:04:51.119011  3739 net.cpp:100] Creating Layer conv4
I1119 20:04:51.119015  3739 net.cpp:434] conv4 <- conv3
I1119 20:04:51.119020  3739 net.cpp:408] conv4 -> conv4
I1119 20:04:51.138734  3739 net.cpp:150] Setting up conv4
I1119 20:04:51.138759  3739 net.cpp:157] Top shape: 50 384 13 13 (3244800)
I1119 20:04:51.138763  3739 net.cpp:165] Memory required for data: 305964000
I1119 20:04:51.138772  3739 layer_factory.hpp:77] Creating layer relu4
I1119 20:04:51.138787  3739 net.cpp:100] Creating Layer relu4
I1119 20:04:51.138800  3739 net.cpp:434] relu4 <- conv4
I1119 20:04:51.138806  3739 net.cpp:395] relu4 -> conv4 (in-place)
I1119 20:04:51.138948  3739 net.cpp:150] Setting up relu4
I1119 20:04:51.138958  3739 net.cpp:157] Top shape: 50 384 13 13 (3244800)
I1119 20:04:51.138962  3739 net.cpp:165] Memory required for data: 318943200
I1119 20:04:51.138965  3739 layer_factory.hpp:77] Creating layer conv5
I1119 20:04:51.138975  3739 net.cpp:100] Creating Layer conv5
I1119 20:04:51.138978  3739 net.cpp:434] conv5 <- conv4
I1119 20:04:51.138984  3739 net.cpp:408] conv5 -> conv5
I1119 20:04:51.152403  3739 net.cpp:150] Setting up conv5
I1119 20:04:51.152420  3739 net.cpp:157] Top shape: 50 256 13 13 (2163200)
I1119 20:04:51.152425  3739 net.cpp:165] Memory required for data: 327596000
I1119 20:04:51.152436  3739 layer_factory.hpp:77] Creating layer relu5
I1119 20:04:51.152442  3739 net.cpp:100] Creating Layer relu5
I1119 20:04:51.152446  3739 net.cpp:434] relu5 <- conv5
I1119 20:04:51.152451  3739 net.cpp:395] relu5 -> conv5 (in-place)
I1119 20:04:51.152585  3739 net.cpp:150] Setting up relu5
I1119 20:04:51.152593  3739 net.cpp:157] Top shape: 50 256 13 13 (2163200)
I1119 20:04:51.152597  3739 net.cpp:165] Memory required for data: 336248800
I1119 20:04:51.152601  3739 layer_factory.hpp:77] Creating layer pool5
I1119 20:04:51.152607  3739 net.cpp:100] Creating Layer pool5
I1119 20:04:51.152611  3739 net.cpp:434] pool5 <- conv5
I1119 20:04:51.152616  3739 net.cpp:408] pool5 -> pool5
I1119 20:04:51.152652  3739 net.cpp:150] Setting up pool5
I1119 20:04:51.152658  3739 net.cpp:157] Top shape: 50 256 6 6 (460800)
I1119 20:04:51.152662  3739 net.cpp:165] Memory required for data: 338092000
I1119 20:04:51.152665  3739 layer_factory.hpp:77] Creating layer fc6
I1119 20:04:51.152674  3739 net.cpp:100] Creating Layer fc6
I1119 20:04:51.152678  3739 net.cpp:434] fc6 <- pool5
I1119 20:04:51.152683  3739 net.cpp:408] fc6 -> fc6
I1119 20:04:52.179437  3739 net.cpp:150] Setting up fc6
I1119 20:04:52.179476  3739 net.cpp:157] Top shape: 50 4096 (204800)
I1119 20:04:52.179481  3739 net.cpp:165] Memory required for data: 338911200
I1119 20:04:52.179491  3739 layer_factory.hpp:77] Creating layer relu6
I1119 20:04:52.179500  3739 net.cpp:100] Creating Layer relu6
I1119 20:04:52.179505  3739 net.cpp:434] relu6 <- fc6
I1119 20:04:52.179512  3739 net.cpp:395] relu6 -> fc6 (in-place)
I1119 20:04:52.179891  3739 net.cpp:150] Setting up relu6
I1119 20:04:52.179903  3739 net.cpp:157] Top shape: 50 4096 (204800)
I1119 20:04:52.179906  3739 net.cpp:165] Memory required for data: 339730400
I1119 20:04:52.179909  3739 layer_factory.hpp:77] Creating layer drop6
I1119 20:04:52.179918  3739 net.cpp:100] Creating Layer drop6
I1119 20:04:52.179921  3739 net.cpp:434] drop6 <- fc6
I1119 20:04:52.179927  3739 net.cpp:395] drop6 -> fc6 (in-place)
I1119 20:04:52.179955  3739 net.cpp:150] Setting up drop6
I1119 20:04:52.179960  3739 net.cpp:157] Top shape: 50 4096 (204800)
I1119 20:04:52.179965  3739 net.cpp:165] Memory required for data: 340549600
I1119 20:04:52.179967  3739 layer_factory.hpp:77] Creating layer fc7
I1119 20:04:52.179975  3739 net.cpp:100] Creating Layer fc7
I1119 20:04:52.179980  3739 net.cpp:434] fc7 <- fc6
I1119 20:04:52.179986  3739 net.cpp:408] fc7 -> fc7
I1119 20:04:52.640764  3739 net.cpp:150] Setting up fc7
I1119 20:04:52.640803  3739 net.cpp:157] Top shape: 50 4096 (204800)
I1119 20:04:52.640808  3739 net.cpp:165] Memory required for data: 341368800
I1119 20:04:52.640820  3739 layer_factory.hpp:77] Creating layer relu7
I1119 20:04:52.640830  3739 net.cpp:100] Creating Layer relu7
I1119 20:04:52.640836  3739 net.cpp:434] relu7 <- fc7
I1119 20:04:52.640841  3739 net.cpp:395] relu7 -> fc7 (in-place)
I1119 20:04:52.641060  3739 net.cpp:150] Setting up relu7
I1119 20:04:52.641072  3739 net.cpp:157] Top shape: 50 4096 (204800)
I1119 20:04:52.641075  3739 net.cpp:165] Memory required for data: 342188000
I1119 20:04:52.641078  3739 layer_factory.hpp:77] Creating layer drop7
I1119 20:04:52.641091  3739 net.cpp:100] Creating Layer drop7
I1119 20:04:52.641105  3739 net.cpp:434] drop7 <- fc7
I1119 20:04:52.641110  3739 net.cpp:395] drop7 -> fc7 (in-place)
I1119 20:04:52.641141  3739 net.cpp:150] Setting up drop7
I1119 20:04:52.641147  3739 net.cpp:157] Top shape: 50 4096 (204800)
I1119 20:04:52.641151  3739 net.cpp:165] Memory required for data: 343007200
I1119 20:04:52.641155  3739 layer_factory.hpp:77] Creating layer fc8_oxford_102
I1119 20:04:52.641162  3739 net.cpp:100] Creating Layer fc8_oxford_102
I1119 20:04:52.641165  3739 net.cpp:434] fc8_oxford_102 <- fc7
I1119 20:04:52.641170  3739 net.cpp:408] fc8_oxford_102 -> fc8_oxford_102
I1119 20:04:52.649178  3739 net.cpp:150] Setting up fc8_oxford_102
I1119 20:04:52.649190  3739 net.cpp:157] Top shape: 50 71 (3550)
I1119 20:04:52.649194  3739 net.cpp:165] Memory required for data: 343021400
I1119 20:04:52.649200  3739 layer_factory.hpp:77] Creating layer loss
I1119 20:04:52.649206  3739 net.cpp:100] Creating Layer loss
I1119 20:04:52.649210  3739 net.cpp:434] loss <- fc8_oxford_102
I1119 20:04:52.649214  3739 net.cpp:434] loss <- label
I1119 20:04:52.649225  3739 net.cpp:408] loss -> (automatic)
I1119 20:04:52.649233  3739 layer_factory.hpp:77] Creating layer loss
…
I1119 20:04:52.650321  3739 net.cpp:322] The NetState phase (1) differed from the phase (0) specified by a rule in layer data
I1119 20:04:52.650461  3739 net.cpp:58] Initializing net from parameters: 
name: "Life_CaffeNet"
state {
  phase: TEST
}
layer {
  name: "data"
  type: "ImageData"
  top: "data"
  top: "label"
  include {
    phase: TEST
  }
  transform_param {
    mirror: false
    crop_size: 227
    mean_file: "examples/life_classification/life_test_mean.binaryproto"
  }
  image_data_param {
    source: "examples/life_classification/data/test_label.txt"
    batch_size: 50
  }
}
layer {
  name: "conv1"
  type: "Convolution"
  bottom: "data"
  top: "conv1"
  param {
    lr_mult: 1
    decay_mult: 1
  }
  param {
    lr_mult: 2
    decay_mult: 0
  }
  convolution_param {
    num_output: 96
    kernel_size: 11
    stride: 4
    weight_filler {
      type: "gaussian"
      std: 0.01
    }
    bias_filler {
      type: "constant"
      value: 0
    }
  }
}
layer {
  name: "relu1"
  type: "ReLU"
  bottom: "conv1"
  top: "conv1"
}
layer {
  name: "pool1"
  type: "Pooling"
  bottom: "conv1"
  top: "pool1"
  pooling_param {
    pool: MAX
    kernel_size: 3
    stride: 2
  }
}
layer {
  name: "norm1"
  type: "LRN"
  bottom: "pool1"
  top: "norm1"
  lrn_param {
    local_size: 5
    alpha: 0.0001
    beta: 0.75
  }
}
layer {
  name: "conv2"
  type: "Convolution"
  bottom: "norm1"
  top: "conv2"
  param {
    lr_mult: 1
    decay_mult: 1
  }
  param {
    lr_mult: 2
    decay_mult: 0
  }
  convolution_param {
    num_output: 256
    pad: 2
    kernel_size: 5
    group: 2
    weight_filler {
      type: "gaussian"
      std: 0.01
    }
    bias_filler {
      type: "constant"
      value: 1
    }
  }
}
layer {
  name: "relu2"
  type: "ReLU"
  bottom: "conv2"
  top: "conv2"
}
layer {
  name: "pool2"
  type: "Pooling"
  bottom: "conv2"
  top: "pool2"
  pooling_param {
    pool: MAX
    kernel_size: 3
    stride: 2
  }
}
layer {
  name: "norm2"
  type: "LRN"
  bottom: "pool2"
  top: "norm2"
  lrn_param {
    local_size: 5
    alpha: 0.0001
    beta: 0.75
  }
}
layer {
  name: "conv3"
  type: "Convolution"
  bottom: "norm2"
  top: "conv3"
  param {
    lr_mult: 1
    decay_mult: 1
  }
  param {
    lr_mult: 2
    decay_mult: 0
  }
  convolution_param {
    num_output: 384
    pad: 1
    kernel_size: 3
    weight_filler {
      type: "gaussian"
      std: 0.01
    }
    bias_filler {
      type: "constant"
      value: 0
    }
  }
}
layer {
  name: "relu3"
  type: "ReLU"
  bottom: "conv3"
  top: "conv3"
}
layer {
  name: "conv4"
  type: "Convolution"
  bottom: "conv3"
  top: "conv4"
  param {
    lr_mult: 1
    decay_mult: 1
  }
  param {
    lr_mult: 2
    decay_mult: 0
  }
  convolution_param {
    num_output: 384
    pad: 1
    kernel_size: 3
    group: 2
    weight_filler {
      type: "gaussian"
      std: 0.01
    }
    bias_filler {
      type: "constant"
      value: 1
    }
  }
}
layer {
  name: "relu4"
  type: "ReLU"
  bottom: "conv4"
  top: "conv4"
}
layer {
  name: "conv5"
  type: "Convolution"
  bottom: "conv4"
  top: "conv5"
  param {
    lr_mult: 1
    decay_mult: 1
  }
  param {
    lr_mult: 2
    decay_mult: 0
  }
  convolution_param {
    num_output: 256
    pad: 1
    kernel_size: 3
    group: 2
    weight_filler {
      type: "gaussian"
      std: 0.01
    }
    bias_filler {
      type: "constant"
      value: 1
    }
  }
}
layer {
  name: "relu5"
  type: "ReLU"
  bottom: "conv5"
  top: "conv5"
}
layer {
  name: "pool5"
  type: "Pooling"
  bottom: "conv5"
  top: "pool5"
  pooling_param {
    pool: MAX
    kernel_size: 3
    stride: 2
  }
}
layer {
  name: "fc6"
  type: "InnerProduct"
  bottom: "pool5"
  top: "fc6"
  param {
    lr_mult: 1
    decay_mult: 1
  }
  param {
    lr_mult: 2
    decay_mult: 0
  }
  inner_product_param {
    num_output: 4096
    weight_filler {
      type: "gaussian"
      std: 0.005
    }
    bias_filler {
      type: "constant"
      value: 1
    }
  }
}
layer {
  name: "relu6"
  type: "ReLU"
  bottom: "fc6"
  top: "fc6"
}
layer {
  name: "drop6"
  type: "Dropout"
  bottom: "fc6"
  top: "fc6"
  dropout_param {
    dropout_ratio: 0.5
  }
}
layer {
  name: "fc7"
  type: "InnerProduct"
  bottom: "fc6"
  top: "fc7"
  param {
    lr_mult: 1
    decay_mult: 1
  }
  param {
    lr_mult: 2
    decay_mult: 0
  }
  inner_product_param {
    num_output: 4096
    weight_filler {
      type: "gaussian"
      std: 0.005
    }
    bias_filler {
      type: "constant"
      value: 1
    }
  }
}
layer {
  name: "relu7"
  type: "ReLU"
  bottom: "fc7"
  top: "fc7"
}
layer {
  name: "drop7"
  type: "Dropout"
  bottom: "fc7"
  top: "fc7"
  dropout_param {
    dropout_ratio: 0.5
  }
}
layer {
  name: "fc8_oxford_102"
  type: "InnerProduct"
  bottom: "fc7"
  top: "fc8_oxford_102"
  param {
    lr_mult: 0
    decay_mult: 1
  }
  param {
    lr_mult: 0
    decay_mult: 0
  }
  inner_product_param {
    num_output: 71
    weight_filler {
      type: "gaussian"
      std: 0.01
    }
    bias_filler {
      type: "constant"
      value: 0
    }
  }
}
layer {
  name: "loss"
  type: "SoftmaxWithLoss"
  bottom: "fc8_oxford_102"
  bottom: "label"
}
layer {
  name: "accuracy"
  type: "Accuracy"
  bottom: "fc8_oxford_102"
  bottom: "label"
  top: "accuracy"
  include {
    phase: TEST
  }
}
I1119 20:04:52.650566  3739 layer_factory.hpp:77] Creating layer data
I1119 20:04:52.650579  3739 net.cpp:100] Creating Layer data
I1119 20:04:52.650584  3739 net.cpp:408] data -> data
I1119 20:04:52.650593  3739 net.cpp:408] data -> label
I1119 20:04:52.650599  3739 data_transformer.cpp:25] Loading mean file from: examples/life_classification/life_test_mean.binaryproto
I1119 20:04:52.688336  3739 image_data_layer.cpp:38] Opening file examples/life_classification/data/test_label.txt
I1119 20:04:52.696990  3739 image_data_layer.cpp:58] A total of 1791 images.
I1119 20:04:52.697852  3739 image_data_layer.cpp:85] output data size: 50,3,227,227
I1119 20:04:52.944560  3739 net.cpp:150] Setting up data
I1119 20:04:52.944594  3739 net.cpp:157] Top shape: 50 3 227 227 (7729350)
I1119 20:04:52.944602  3739 net.cpp:157] Top shape: 50 (50)
I1119 20:04:52.944604  3739 net.cpp:165] Memory required for data: 30917600
I1119 20:04:52.944610  3739 layer_factory.hpp:77] Creating layer label_data_1_split
I1119 20:04:52.944620  3739 net.cpp:100] Creating Layer label_data_1_split
I1119 20:04:52.944625  3739 net.cpp:434] label_data_1_split <- label
I1119 20:04:52.944631  3739 net.cpp:408] label_data_1_split -> label_data_1_split_0
I1119 20:04:52.944640  3739 net.cpp:408] label_data_1_split -> label_data_1_split_1
I1119 20:04:52.944691  3739 net.cpp:150] Setting up label_data_1_split
I1119 20:04:52.944700  3739 net.cpp:157] Top shape: 50 (50)
I1119 20:04:52.944702  3739 net.cpp:157] Top shape: 50 (50)
I1119 20:04:52.944705  3739 net.cpp:165] Memory required for data: 30918000
I1119 20:04:52.944710  3739 layer_factory.hpp:77] Creating layer conv1
I1119 20:04:52.944720  3739 net.cpp:100] Creating Layer conv1
I1119 20:04:52.944725  3739 net.cpp:434] conv1 <- data
I1119 20:04:52.944730  3739 net.cpp:408] conv1 -> conv1
I1119 20:04:52.949337  3739 net.cpp:150] Setting up conv1
I1119 20:04:52.949352  3739 net.cpp:157] Top shape: 50 96 55 55 (14520000)
I1119 20:04:52.949357  3739 net.cpp:165] Memory required for data: 88998000
I1119 20:04:52.949367  3739 layer_factory.hpp:77] Creating layer relu1
I1119 20:04:52.949373  3739 net.cpp:100] Creating Layer relu1
I1119 20:04:52.949378  3739 net.cpp:434] relu1 <- conv1
I1119 20:04:52.949383  3739 net.cpp:395] relu1 -> conv1 (in-place)
I1119 20:04:52.949514  3739 net.cpp:150] Setting up relu1
I1119 20:04:52.949522  3739 net.cpp:157] Top shape: 50 96 55 55 (14520000)
I1119 20:04:52.949525  3739 net.cpp:165] Memory required for data: 147078000
I1119 20:04:52.949529  3739 layer_factory.hpp:77] Creating layer pool1
I1119 20:04:52.949537  3739 net.cpp:100] Creating Layer pool1
I1119 20:04:52.949540  3739 net.cpp:434] pool1 <- conv1
I1119 20:04:52.949545  3739 net.cpp:408] pool1 -> pool1
I1119 20:04:52.949581  3739 net.cpp:150] Setting up pool1
I1119 20:04:52.949586  3739 net.cpp:157] Top shape: 50 96 27 27 (3499200)
I1119 20:04:52.949589  3739 net.cpp:165] Memory required for data: 161074800
I1119 20:04:52.949594  3739 layer_factory.hpp:77] Creating layer norm1
I1119 20:04:52.949599  3739 net.cpp:100] Creating Layer norm1
I1119 20:04:52.949602  3739 net.cpp:434] norm1 <- pool1
I1119 20:04:52.949607  3739 net.cpp:408] norm1 -> norm1
I1119 20:04:52.949908  3739 net.cpp:150] Setting up norm1
I1119 20:04:52.949939  3739 net.cpp:157] Top shape: 50 96 27 27 (3499200)
I1119 20:04:52.949942  3739 net.cpp:165] Memory required for data: 175071600
I1119 20:04:52.949946  3739 layer_factory.hpp:77] Creating layer conv2
I1119 20:04:52.949954  3739 net.cpp:100] Creating Layer conv2
I1119 20:04:52.949959  3739 net.cpp:434] conv2 <- norm1
I1119 20:04:52.949964  3739 net.cpp:408] conv2 -> conv2
I1119 20:04:52.959520  3739 net.cpp:150] Setting up conv2
I1119 20:04:52.959539  3739 net.cpp:157] Top shape: 50 256 27 27 (9331200)
I1119 20:04:52.959543  3739 net.cpp:165] Memory required for data: 212396400
I1119 20:04:52.959553  3739 layer_factory.hpp:77] Creating layer relu2
I1119 20:04:52.959559  3739 net.cpp:100] Creating Layer relu2
I1119 20:04:52.959563  3739 net.cpp:434] relu2 <- conv2
I1119 20:04:52.959568  3739 net.cpp:395] relu2 -> conv2 (in-place)
I1119 20:04:52.959808  3739 net.cpp:150] Setting up relu2
I1119 20:04:52.959818  3739 net.cpp:157] Top shape: 50 256 27 27 (9331200)
I1119 20:04:52.959822  3739 net.cpp:165] Memory required for data: 249721200
I1119 20:04:52.959825  3739 layer_factory.hpp:77] Creating layer pool2
I1119 20:04:52.959832  3739 net.cpp:100] Creating Layer pool2
I1119 20:04:52.959836  3739 net.cpp:434] pool2 <- conv2
I1119 20:04:52.959841  3739 net.cpp:408] pool2 -> pool2
I1119 20:04:52.959878  3739 net.cpp:150] Setting up pool2
I1119 20:04:52.959884  3739 net.cpp:157] Top shape: 50 256 13 13 (2163200)
I1119 20:04:52.959887  3739 net.cpp:165] Memory required for data: 258374000
I1119 20:04:52.959890  3739 layer_factory.hpp:77] Creating layer norm2
I1119 20:04:52.959897  3739 net.cpp:100] Creating Layer norm2
I1119 20:04:52.959899  3739 net.cpp:434] norm2 <- pool2
I1119 20:04:52.959904  3739 net.cpp:408] norm2 -> norm2
I1119 20:04:52.960057  3739 net.cpp:150] Setting up norm2
I1119 20:04:52.960064  3739 net.cpp:157] Top shape: 50 256 13 13 (2163200)
I1119 20:04:52.960068  3739 net.cpp:165] Memory required for data: 267026800
I1119 20:04:52.960072  3739 layer_factory.hpp:77] Creating layer conv3
I1119 20:04:52.960079  3739 net.cpp:100] Creating Layer conv3
I1119 20:04:52.960083  3739 net.cpp:434] conv3 <- norm2
I1119 20:04:52.960088  3739 net.cpp:408] conv3 -> conv3
I1119 20:04:52.985590  3739 net.cpp:150] Setting up conv3
I1119 20:04:52.985617  3739 net.cpp:157] Top shape: 50 384 13 13 (3244800)
I1119 20:04:52.985621  3739 net.cpp:165] Memory required for data: 280006000
I1119 20:04:52.985632  3739 layer_factory.hpp:77] Creating layer relu3
I1119 20:04:52.985642  3739 net.cpp:100] Creating Layer relu3
I1119 20:04:52.985646  3739 net.cpp:434] relu3 <- conv3
I1119 20:04:52.985652  3739 net.cpp:395] relu3 -> conv3 (in-place)
I1119 20:04:52.985899  3739 net.cpp:150] Setting up relu3
I1119 20:04:52.985909  3739 net.cpp:157] Top shape: 50 384 13 13 (3244800)
I1119 20:04:52.985913  3739 net.cpp:165] Memory required for data: 292985200
I1119 20:04:52.985916  3739 layer_factory.hpp:77] Creating layer conv4
I1119 20:04:52.985926  3739 net.cpp:100] Creating Layer conv4
I1119 20:04:52.985930  3739 net.cpp:434] conv4 <- conv3
I1119 20:04:52.985935  3739 net.cpp:408] conv4 -> conv4
I1119 20:04:53.005954  3739 net.cpp:150] Setting up conv4
I1119 20:04:53.005981  3739 net.cpp:157] Top shape: 50 384 13 13 (3244800)
I1119 20:04:53.005985  3739 net.cpp:165] Memory required for data: 305964400
I1119 20:04:53.005993  3739 layer_factory.hpp:77] Creating layer relu4
I1119 20:04:53.006003  3739 net.cpp:100] Creating Layer relu4
I1119 20:04:53.006007  3739 net.cpp:434] relu4 <- conv4
I1119 20:04:53.006014  3739 net.cpp:395] relu4 -> conv4 (in-place)
I1119 20:04:53.006357  3739 net.cpp:150] Setting up relu4
I1119 20:04:53.006368  3739 net.cpp:157] Top shape: 50 384 13 13 (3244800)
I1119 20:04:53.006371  3739 net.cpp:165] Memory required for data: 318943600
I1119 20:04:53.006376  3739 layer_factory.hpp:77] Creating layer conv5
I1119 20:04:53.006386  3739 net.cpp:100] Creating Layer conv5
I1119 20:04:53.006389  3739 net.cpp:434] conv5 <- conv4
I1119 20:04:53.006400  3739 net.cpp:408] conv5 -> conv5
I1119 20:04:53.020916  3739 net.cpp:150] Setting up conv5
I1119 20:04:53.020936  3739 net.cpp:157] Top shape: 50 256 13 13 (2163200)
I1119 20:04:53.020939  3739 net.cpp:165] Memory required for data: 327596400
I1119 20:04:53.020951  3739 layer_factory.hpp:77] Creating layer relu5
I1119 20:04:53.020957  3739 net.cpp:100] Creating Layer relu5
I1119 20:04:53.020961  3739 net.cpp:434] relu5 <- conv5
I1119 20:04:53.020965  3739 net.cpp:395] relu5 -> conv5 (in-place)
I1119 20:04:53.021214  3739 net.cpp:150] Setting up relu5
I1119 20:04:53.021229  3739 net.cpp:157] Top shape: 50 256 13 13 (2163200)
I1119 20:04:53.021234  3739 net.cpp:165] Memory required for data: 336249200
I1119 20:04:53.021237  3739 layer_factory.hpp:77] Creating layer pool5
I1119 20:04:53.021257  3739 net.cpp:100] Creating Layer pool5
I1119 20:04:53.021261  3739 net.cpp:434] pool5 <- conv5
I1119 20:04:53.021266  3739 net.cpp:408] pool5 -> pool5
I1119 20:04:53.021309  3739 net.cpp:150] Setting up pool5
I1119 20:04:53.021316  3739 net.cpp:157] Top shape: 50 256 6 6 (460800)
I1119 20:04:53.021318  3739 net.cpp:165] Memory required for data: 338092400
I1119 20:04:53.021322  3739 layer_factory.hpp:77] Creating layer fc6
I1119 20:04:53.021328  3739 net.cpp:100] Creating Layer fc6
I1119 20:04:53.021332  3739 net.cpp:434] fc6 <- pool5
I1119 20:04:53.021337  3739 net.cpp:408] fc6 -> fc6
I1119 20:04:54.533654  3739 net.cpp:150] Setting up fc6
I1119 20:04:54.533694  3739 net.cpp:157] Top shape: 50 4096 (204800)
I1119 20:04:54.533701  3739 net.cpp:165] Memory required for data: 338911600
I1119 20:04:54.533717  3739 layer_factory.hpp:77] Creating layer relu6
I1119 20:04:54.533731  3739 net.cpp:100] Creating Layer relu6
I1119 20:04:54.533736  3739 net.cpp:434] relu6 <- fc6
I1119 20:04:54.533745  3739 net.cpp:395] relu6 -> fc6 (in-place)
I1119 20:04:54.534139  3739 net.cpp:150] Setting up relu6
I1119 20:04:54.534152  3739 net.cpp:157] Top shape: 50 4096 (204800)
I1119 20:04:54.534154  3739 net.cpp:165] Memory required for data: 339730800
I1119 20:04:54.534158  3739 layer_factory.hpp:77] Creating layer drop6
I1119 20:04:54.534164  3739 net.cpp:100] Creating Layer drop6
I1119 20:04:54.534168  3739 net.cpp:434] drop6 <- fc6
I1119 20:04:54.534173  3739 net.cpp:395] drop6 -> fc6 (in-place)
I1119 20:04:54.534204  3739 net.cpp:150] Setting up drop6
I1119 20:04:54.534220  3739 net.cpp:157] Top shape: 50 4096 (204800)
I1119 20:04:54.534224  3739 net.cpp:165] Memory required for data: 340550000
I1119 20:04:54.534227  3739 layer_factory.hpp:77] Creating layer fc7
I1119 20:04:54.534235  3739 net.cpp:100] Creating Layer fc7
I1119 20:04:54.534240  3739 net.cpp:434] fc7 <- fc6
I1119 20:04:54.534245  3739 net.cpp:408] fc7 -> fc7
I1119 20:04:55.181615  3739 net.cpp:150] Setting up fc7
I1119 20:04:55.181655  3739 net.cpp:157] Top shape: 50 4096 (204800)
I1119 20:04:55.181659  3739 net.cpp:165] Memory required for data: 341369200
I1119 20:04:55.181668  3739 layer_factory.hpp:77] Creating layer relu7
I1119 20:04:55.181679  3739 net.cpp:100] Creating Layer relu7
I1119 20:04:55.181684  3739 net.cpp:434] relu7 <- fc7
I1119 20:04:55.181691  3739 net.cpp:395] relu7 -> fc7 (in-place)
I1119 20:04:55.181898  3739 net.cpp:150] Setting up relu7
I1119 20:04:55.181908  3739 net.cpp:157] Top shape: 50 4096 (204800)
I1119 20:04:55.181911  3739 net.cpp:165] Memory required for data: 342188400
I1119 20:04:55.181915  3739 layer_factory.hpp:77] Creating layer drop7
I1119 20:04:55.181921  3739 net.cpp:100] Creating Layer drop7
I1119 20:04:55.181924  3739 net.cpp:434] drop7 <- fc7
I1119 20:04:55.181931  3739 net.cpp:395] drop7 -> fc7 (in-place)
I1119 20:04:55.181958  3739 net.cpp:150] Setting up drop7
I1119 20:04:55.181963  3739 net.cpp:157] Top shape: 50 4096 (204800)
I1119 20:04:55.181967  3739 net.cpp:165] Memory required for data: 343007600
I1119 20:04:55.181970  3739 layer_factory.hpp:77] Creating layer fc8_oxford_102
I1119 20:04:55.181978  3739 net.cpp:100] Creating Layer fc8_oxford_102
I1119 20:04:55.181982  3739 net.cpp:434] fc8_oxford_102 <- fc7
I1119 20:04:55.181994  3739 net.cpp:408] fc8_oxford_102 -> fc8_oxford_102
I1119 20:04:55.189782  3739 net.cpp:150] Setting up fc8_oxford_102
I1119 20:04:55.189795  3739 net.cpp:157] Top shape: 50 71 (3550)
I1119 20:04:55.189798  3739 net.cpp:165] Memory required for data: 343021800
I1119 20:04:55.189805  3739 layer_factory.hpp:77] Creating layer fc8_oxford_102_fc8_oxford_102_0_split
I1119 20:04:55.189811  3739 net.cpp:100] Creating Layer fc8_oxford_102_fc8_oxford_102_0_split
I1119 20:04:55.189815  3739 net.cpp:434] fc8_oxford_102_fc8_oxford_102_0_split <- fc8_oxford_102
I1119 20:04:55.189821  3739 net.cpp:408] fc8_oxford_102_fc8_oxford_102_0_split -> fc8_oxford_102_fc8_oxford_102_0_split_0
I1119 20:04:55.189826  3739 net.cpp:408] fc8_oxford_102_fc8_oxford_102_0_split -> fc8_oxford_102_fc8_oxford_102_0_split_1
I1119 20:04:55.189862  3739 net.cpp:150] Setting up fc8_oxford_102_fc8_oxford_102_0_split
I1119 20:04:55.189867  3739 net.cpp:157] Top shape: 50 71 (3550)
I1119 20:04:55.189872  3739 net.cpp:157] Top shape: 50 71 (3550)
I1119 20:04:55.189874  3739 net.cpp:165] Memory required for data: 343050200
I1119 20:04:55.189877  3739 layer_factory.hpp:77] Creating layer loss
I1119 20:04:55.189882  3739 net.cpp:100] Creating Layer loss
I1119 20:04:55.189885  3739 net.cpp:434] loss <- fc8_oxford_102_fc8_oxford_102_0_split_0
I1119 20:04:55.189889  3739 net.cpp:434] loss <- label_data_1_split_0
I1119 20:04:55.189895  3739 net.cpp:408] loss -> (automatic)
…
